data.pth (torch, 3967 bytes, 6 tensors)

l1.weight f4 [8, 32]
0	0x3f0109f8	0.50405836
1	0xbe2836ea	-0.16427198
2	0x3e8596e8	0.26091695
3	0x3dcad719	0.09904308
4	0xbf0aaeb3	-0.5417282
5	0x3de812ba	0.11331697
6	0x3ea9e211	0.33180287
7	0xbe253191	-0.1613219
8	0x3e243975	0.16037543
9	0xbf073462	-0.52814305
10	0x3f0f8d17	0.5607466
11	0x3f068490	0.52546024
12	0x3ee67f18	0.4501884
13	0x3f1d9af4	0.61564565
14	0x3e6155c4	0.22005373
15	0x3e946839	0.28985766
16	0xbf0cceea	-0.55003226
17	0xbef242b6	-0.4731652
18	0xbef64406	-0.48098773
19	0x3ec6f0dc	0.38855636
20	0xbddf9ecf	-0.10918962
21	0x3de0e671	0.10981453
22	0xbdcf3904	-0.10118297
23	0xbefcf75f	-0.4940748
24	0xbe0c9f60	-0.13732672
25	0xbe163397	-0.14668117
26	0x3f5e21a8	0.86770105
27	0x3eaf7dbf	0.34275624
28	0x3ea6b869	0.3256257
29	0x3ea0efd7	0.31432983
30	0x3eebf61e	0.4608621
31	0x3e37e0a6	0.1795679
32	0x3ab07075	0.0013461249
33	0xbe85f93a	-0.26166707
34	0x3f1f3745	0.6219371
35	0x3f139ca3	0.57660884
36	0xbf2fb5a9	-0.68636566
37	0x3f527f17	0.82225174
38	0x3ead0694	0.3379408
39	0xbe92d400	-0.28677368
40	0x3f662b64	0.8990996
41	0xbf2f53c4	-0.6848719
42	0x3f6f5f4e	0.935048
43	0xbe12d1aa	-0.14337793
44	0x3f22b852	0.635625
45	0x3f42e763	0.7613432
46	0x3f093a0d	0.53604203
47	0x3f57089e	0.83997524
48	0xbf2ee2f1	-0.68315035
49	0xbe24ac91	-0.16081454
50	0xbebdf051	-0.3709741
51	0x3e24b8b3	0.16086082
52	0xbe33018b	-0.17481057
53	0x3e9e59cd	0.30927888
54	0x3f141968	0.57851267
55	0xbec27dac	-0.37986505
56	0xbd6b66ca	-0.057471074
57	0xbe0c2025	-0.13684137
58	0xbd8be57b	-0.06830879
59	0x3db518c7	0.088426165
60	0x3f110857	0.5665335
61	0x3f237ac6	0.6385921
62	0x3da27af0	0.07933605
63	0x3f168ef0	0.58811855
64	0x3c5d4ab3	0.013506579
65	0x3d26a8fa	0.040688492
66	0x3edc14a6	0.42984504
67	0x3f1455b3	0.57943267
68	0xbe0a593c	-0.13510603
69	0x3efd894f	0.4951882
70	0xbe780357	-0.24220024
71	0xbdd90315	-0.10596291
72	0x3f18cb71	0.59685427
73	0xbdf31123	-0.11868503
74	0x3f1a4d8b	0.6027457
75	0xbe616eba	-0.22014895
76	0x3f653d41	0.8954659
77	0x3f1c1595	0.6097043
78	0x3f0de718	0.55430746
79	0x3ed9c2a0	0.425313
80	0xbec74f28	-0.3892758
81	0xbc642788	-0.013925441
82	0xbd52f4ec	-0.051503107
83	0xbd17e0d8	-0.037079662
84	0xbd28ab92	-0.041179247
85	0xbe1bf508	-0.15230191
86	0xbe0f207a	-0.13977233
87	0xbd0e5e20	-0.034757733
88	0xbb9b4ac2	-0.0047391364
89	0xbe3e3c5d	-0.18577714
90	0xbeed4fad	-0.4634985
91	0xbe495d9d	-0.19664617
92	0x3ef944b7	0.48685238
93	0xbe85f2ab	-0.26161703
94	0x3d97e780	0.07417202
95	0xbecdad53	-0.40171298
96	0xbe7759c7	-0.24155341
97	0x3eb6c188	0.35694528
98	0xbeef93fe	-0.46792597
99	0xbe190dbe	-0.14946648
100	0x3f592786	0.8482593
101	0xbea0feab	-0.31444296
102	0x3f58e257	0.8472037
103	0x3ed1c64a	0.40971595
104	0xbe176862	-0.14785913
105	0x3f5c3f44	0.86034036
106	0xbec764f1	-0.389442
107	0x3cd1af3e	0.025596257
108	0xbea948f2	-0.33063465
109	0xbee2591f	-0.4420862
110	0xbeb42459	-0.3518398
111	0x3eb564b2	0.35428387
112	0x3ef7aefd	0.48375693
113	0x3ec5258d	0.3850521
114	0x3f42f425	0.76153785
115	0xbdb960db	-0.09051677
116	0x3e8cbb89	0.27486828
117	0x3f25ab88	0.6471486
118	0x3f2b4bfc	0.6691282
119	0x3f00e9cd	0.5035675
120	0x3e1f02e8	0.15528452
121	0x3f03599e	0.5130862
122	0xbf2d107e	-0.6760329
123	0xbd436e11	-0.04771239
124	0xbe557610	-0.20845819
125	0x3fac0dd4	1.344172
126	0x3ebfa887	0.37433264
127	0x3f646b27	0.89226
128	0x3ddffc8a	0.1093684
129	0x3c57491e	0.013139991
130	0xbe71c124	-0.23608834
131	0xbeadd538	-0.33951735
132	0x3f5a5eb9	0.85300785
133	0xbecdb590	-0.40177584
134	0xbe53aabd	-0.206706
135	0xbdcbe7c6	-0.09956317
136	0xbe4ea523	-0.20180182
137	0x3f44383e	0.7664832
138	0xbee9e333	-0.45681152
139	0x3e68a77b	0.22720139
140	0xbf0f30bc	-0.5593374
141	0xbf022ed5	-0.5085271
142	0xbe74f799	-0.23922576
143	0xbe4d2039	-0.20031823
144	0xbe7f7de7	-0.24950372
145	0x3efaedfd	0.49009696
146	0x3e3118e1	0.17294647
147	0x3d91f815	0.07127396
148	0x3ebb1d92	0.36545998
149	0xbe0d4d69	-0.13799061
150	0x3db4971f	0.088178866
151	0x3eb257c9	0.348326
152	0xbe02f648	-0.12789261
153	0x3e37c273	0.1794527
154	0x3e9c769d	0.30559245
155	0x3d913221	0.070896395
156	0xbe550035	-0.2080086
157	0xbf138907	-0.5763096
158	0x3e52afe5	0.20574911
159	0x3d83cb5e	0.064352736
160	0xbe27842e	-0.16359016
161	0xbb827ae0	-0.003981933
162	0xbe1eedda	-0.1552042
163	0x3d845bce	0.06462823
164	0xbe0a6d76	-0.13518319
165	0x3d29dd24	0.04147066
166	0xbe217970	-0.15768981
167	0xbba64ca0	-0.0050750524
168	0xbe04a168	-0.12952197
169	0xbc8a0890	-0.016849786
170	0x3e147823	0.14498954
171	0x3e132a15	0.14371522
172	0x3e1bc60d	0.15212269
173	0xbe022ab0	-0.12711596
174	0xbe0f4af6	-0.13993439
175	0x3d219c54	0.039455727
176	0x3e013019	0.12616004
177	0x3ab80e00	0.0014042258
178	0xbe26ef1d	-0.16302152
179	0xbe1a2e8a	-0.15056816
180	0x3d821852	0.06352295
181	0xbd9c73aa	-0.07639249
182	0xbd9d77ea	-0.076888874
183	0xbd935020	-0.07193017
184	0x3c6c8d40	0.0144379735
185	0xbdfb4a08	-0.1226998
186	0x3dcd1a64	0.10014799
187	0xbd8d29fc	-0.068927735
188	0x3d3e6600	0.046483994
189	0x3c596500	0.013268709
190	0x3da7e735	0.08198396
191	0xbe27d612	-0.16390255
192	0xbe902ac5	-0.2815763
193	0x3f09957f	0.5374374
194	0xbe69e7c5	-0.2284232
195	0x3e755885	0.23959549
196	0xbf2c6533	-0.6734192
197	0xbd982fb3	-0.07430973
198	0x3f4ee054	0.8081105
199	0x3ee1d5f5	0.4410855
200	0x3d5ed174	0.05439897
201	0xbf2bc32b	-0.6709468
202	0x3e5b451e	0.21413085
203	0xbda4dc11	-0.08049787
204	0x3e7adef9	0.2449912
205	0x3e49518f	0.19660018
206	0x3e1f661b	0.15566294
207	0x3f25186b	0.64490384
208	0x3f359e06	0.7094425
209	0x3f01ba3b	0.5067479
210	0xbeca1533	-0.394693
211	0xbc01177c	-0.007879134
212	0x3f297b61	0.66203886
213	0x3f01db15	0.5072492
214	0x3f326ecc	0.6970031
215	0xbea4ab6d	-0.32162037
216	0x3e9828bd	0.2971858
217	0x3f1e01cd	0.617215
218	0xbf1b3565	-0.6062835
219	0xbe670bbd	-0.22563072
220	0xbd64da8b	-0.05587248
221	0x3f9b17c6	1.211663
222	0x3d634277	0.055483308
223	0x3f442cca	0.7663084
224	0xbec350f9	-0.38147715
225	0x3f00c007	0.5029301
226	0x3daed4b6	0.08536665
227	0x3e5379d8	0.20651948
228	0xbe862e60	-0.26207256
229	0x3e8e26a5	0.27763858
230	0x3e3ae54e	0.18251535
231	0x3ec3825b	0.3818539
232	0x3e3d8ff1	0.1851194
233	0xbeaf7f5a	-0.3427685
234	0x3eb95816	0.36200017
235	0xbeace435	-0.33767858
236	0x3e629268	0.22126162
237	0x3ed36197	0.41285393
238	0x3eb18e7d	0.34679022
239	0x3e685a45	0.22690685
240	0x3f7fbeab	0.9990031
241	0x3ef49f49	0.47777775
242	0xbe90ec18	-0.28305125
243	0xbe342267	-0.17591248
244	0x3f218c7a	0.63104975
245	0x3e797757	0.24361931
246	0x3e7f87bc	0.24954122
247	0xbe7c5abf	-0.24643992
248	0x3efdccdc	0.49570358
249	0x3ed7f59a	0.42179567
250	0xbf5a7004	-0.8532717
251	0xbe1cb542	-0.1530352
252	0x3da98902	0.08278085
253	0xbc132aa9	-0.008982339
254	0xbd0d30ff	-0.034470554
255	0x3e9c75f7	0.3055875

l1.bias f4 [8]
0	0x3f175337	0.5911135
1	0x3f2fb14e	0.6862992
2	0x3ec773a8	0.38955426
3	0x3f0f384b	0.5594527
4	0x3f24afda	0.6433083
5	0xbe4894a5	-0.19587953
6	0x3f316121	0.6928883
7	0x3f5b6f53	0.8571674

l2.weight f4 [8, 8]
0	0xbeed4535	-0.46341863
1	0xbf465c26	-0.7748436
2	0x3f29de32	0.6635467
3	0x3f246cdc	0.64228606
4	0x3f7fd80b	0.9993903
5	0x3d292850	0.04129821
6	0xbf25ddd8	-0.6479163
7	0xbe159a4a	-0.14609638
8	0x3f2d16d5	0.67612964
9	0x3f09b330	0.53789043
10	0xbf0d87d4	-0.5528538
11	0x3f09582f	0.5365018
12	0x3f207442	0.62677395
13	0xbd368370	-0.044558942
14	0x3eefc2c5	0.46828285
15	0xbf58dbd2	-0.8471042
16	0xbf59877e	-0.8497237
17	0xbf880593	-1.0626701
18	0xbe0f0959	-0.1396841
19	0x3d9f89fd	0.07789991
20	0x3e88fcb1	0.26755288
21	0x3e0c9bcd	0.13731308
22	0x3f2226d8	0.6334052
23	0x3f645df0	0.8920584
24	0xbec328d9	-0.38117102
25	0xbe67713e	-0.22601792
26	0xbf51f15f	-0.8200893
27	0x3fbc253e	1.4698865
28	0xbf477ea9	-0.77927643
29	0xbc7f7f75	-0.015594353
30	0x3f84ecf5	1.0384814
31	0x3ef5f56f	0.48038813
32	0xbca7e030	-0.020492643
33	0xbe09dfcc	-0.13464278
34	0x3e0216e8	0.1270405
35	0xbdd2d5c0	-0.10294676
36	0xbe55e990	-0.20889878
37	0xbdbc5cfc	-0.09197423
38	0x3d07b0df	0.03312766
39	0x3e10afa1	0.14129497
40	0xbf74d003	-0.956299
41	0xbf3ca778	-0.7369304
42	0x3df15d3c	0.11785361
43	0x3f0bd477	0.5462107
44	0x3f83e23c	1.0303416
45	0x3e436235	0.19080432
46	0xbdd3a5b6	-0.10334341
47	0x3f62ce24	0.88595796
48	0x3da5d174	0.08096591
49	0xbe7b56e8	-0.24544871
50	0xbd06b528	-0.032887608
51	0xbe20ef36	-0.15716252
52	0xbe2c9ba5	-0.16856249
53	0xbd84b7c0	-0.0648036
54	0x3e01a172	0.12659243
55	0xbd409ea0	-0.047026277
56	0x3d92a9d0	0.071612954
57	0x3f8b4fb5	1.08837
58	0x3fce7fcf	1.6132754
59	0x3e2401d9	0.1601633
60	0xbf770009	-0.9648443
61	0xbdbe66dc	-0.092969626
62	0x3f881593	1.0631584
63	0x3faffe1f	1.3749427

l2.bias f4 [8]
0	0x3e0ce0c4	0.13757616
1	0x3e7632fa	0.24042884
2	0x3ecd1c43	0.40060624
3	0xbc884be5	-0.016637752
4	0xbe8cffa8	-0.275388
5	0x3f103456	0.5632986
6	0xbe2416a6	-0.16024265
7	0x3cd0d931	0.02549419

l3.weight f4 [5, 8]
0	0xbf11dc2d	-0.56976587
1	0xbe98bbf9	-0.29830912
2	0xbf5cc154	-0.86232495
3	0x3f23ed73	0.64034194
4	0x3e821991	0.2541013
5	0xbf8fabb8	-1.1224279
6	0x3dd892ec	0.10574898
7	0x3d99dc52	0.07512726
8	0xbfb9bc07	-1.4510506
9	0xbf53e4ce	-0.82771003
10	0x3f274490	0.65338993
11	0x3df1a648	0.11799294
12	0xbe8e9f64	-0.2785598
13	0x3eddfcd3	0.43356952
14	0x3e53340a	0.2062532
15	0xbe506e2d	-0.20354529
16	0x3fa0521d	1.2525059
17	0xbee969d8	-0.45588565
18	0x3d405d02	0.0469637
19	0xbe2666b3	-0.16250114
20	0x3e8fa4a5	0.280553
21	0x3f284d48	0.6574292
22	0x3eb357a5	0.35027805
23	0xbfacb123	-1.3491558
24	0xbf85f1f9	-1.0464469
25	0xbf37e0ba	-0.7182728
26	0xbf38ef92	-0.72240555
27	0xbfaa231c	-1.3291965
28	0xbe757a6f	-0.23972486
29	0xbf2e3e0d	-0.6806343
30	0x3d6d2eb8	0.057905883
31	0x3f75b259	0.9597526
32	0xbf70c2d3	-0.9404728
33	0x3f4a4a99	0.79020077
34	0xbf0967d6	-0.53674066
35	0xbf155a07	-0.58340496
36	0x3e7dd218	0.24787176
37	0xbf40389a	-0.7508637
38	0xbd9db4c0	-0.07700491
39	0xbf8f2255	-1.1182352

l3.bias f4 [5]
0	0xbf9c6146	-1.2217185
1	0xbf95ac78	-1.1693258
2	0xbf6b2d70	-0.9186621
3	0xbe6815e6	-0.22664604
4	0x3fdb8e5f	1.7152823
